Model: "sequential"
_________________________________________________________________
Layer (type)                 Output Shape              Param #
=================================================================
embedding (Embedding)        (None, 30, 5)             5000
_________________________________________________________________
lstm (LSTM)                  (None, 30, 10)            640
_________________________________________________________________
lstm_1 (LSTM)                (None, 30, 10)            840
_________________________________________________________________
lstm_2 (LSTM)                (None, 5)                 320
_________________________________________________________________
dense (Dense)                (None, 5)                 30
_________________________________________________________________
dense_1 (Dense)              (None, 1)                 6
=================================================================
Total params: 6,836
Trainable params: 6,836
Non-trainable params: 0
_________________________________________________________________
reading chunk 0
Train on 75929 samples, validate on 3997 samples
Epoch 1/5
75929/75929 [==============================] - 23s 306us/sample - loss: 2.3292 - val_loss: 2.6545
Epoch 2/5
75929/75929 [==============================] - 19s 245us/sample - loss: 2.1884 - val_loss: 2.6519
…
